model_task1.tflite (tflite, 52424 bytes, 5 tensors)

sequential/conv2d/Conv2D/ReadVariableOp i1 [1, 7, 7, 16]
-18 88 20 103 3 -69 -9 -5
94 -47 -17 45 -30 -20 25 -5
3 74 16 85 24 -95 -16 -31
88 -38 -14 62 -29 -23 22 -16
-23 66 36 65 23 -127 -27 9
108 30 -28 79 -29 -18 11 -6
-57 65 30 60 36 -117 -7 32
37 30 -15 61 40 -7 -29 42
-80 127 38 92 19 -72 26 -29
81 -37 -5 86 -2 12 38 40
-51 107 24 100 13 -68 -7 20
88 -94 -63 99 -47 -3 33 49
6 111 19 88 9 -98 -16 9
75 -79 -42 75 -54 -34 42 43
106 -8 -5 -38 -22 19 12 -12
8 50 28 -38 -20 -21 -23 13
112 -30 -6 -40 -9 3 -1 12
-25 37 31 -20 49 -2 10 8
92 -36 -3 -21 -7 -25 -13 54
15 83 31 -20 -11 13 32 55
58 -2 -17 -17 9 14 10 46
-59 127 47 -28 99 45 -58 91
26 19 9 -1 -7 44 32 6
-9 -4 102 -50 57 60 7 92
41 12 -10 -2 -30 38 19 -14
4 -35 -25 -32 22 49 39 88
79 17 -17 -12 -38 34 0 -4
-10 -17 5 -44 32 4 51 87
-12 -94 -46 46 20 -5 -3 -72
-79 15 8 71 -28 -17 -108 -2
8 -109 -67 23 31 -4 -10 -62
-127 3 15 63 57 -8 1 1
00000000: ee58 1467 03bb f7fb 5ed1 ef2d e2ec 19fb
00000010: 034a 1055 18a1 f0e1 58da f23e e3e9 16f0
00000020: e942 2441 1781 e509 6c1e e44f e3ee 0bfa
00000030: c741 1e3c 248b f920 251e f13d 28f9 e32a
00000040: b07f 265c 13b8 1ae3 51db fb56 fe0c 2628
00000050: cd6b 1864 0dbc f914 58a2 c163 d1fd 2131
00000060: 066f 1358 099e f009 4bb1 d64b cade 2a2b
00000070: 6af8 fbda ea13 0cf4 0832 1cda eceb e90d
00000080: 70e2 fad8 f703 ff0c e725 1fec 31fe 0a08
00000090: 5cdc fdeb f9e7 f336 0f53 1fec f50d 2037
000000a0: 3afe efef 090e 0a2e c57f 2fe4 632d c65b
000000b0: 1a13 09ff f92c 2006 f7fc 66ce 393c 075c
000000c0: 290c f6fe e226 13f2 04dd e7e0 1631 2758
000000d0: 4f11 eff4 da22 00fc f6ef 05d4 2004 3357
000000e0: f4a2 d22e 14fb fdb8 b10f 0847 e4ef 94fe
000000f0: 0893 bd17 1ffc f6c2 8103 0f3f 39f8 0101

sequential/conv2d_1/Conv2D/ReadVariableOp i1 [16, 7, 7, 16]
5 5 24 40 -2 -4 -28 0
4 -33 -7 9 -13 -3 18 23
-26 33 5 50 17 -20 -4 -8
-7 -26 -21 1 -28 -21 2 42
-31 51 4 46 15 -6 17 8
-19 -32 -10 2 -35 9 28 58
-42 53 4 48 9 1 23 3
-17 -35 -38 -1 -42 2 18 58
-32 3 -1 33 7 -9 31 5
-6 -16 -35 -3 -15 -49 2 38
1 5 9 22 10 -10 30 16
-1 -1 -32 -1 -2 -25 -2 38
17 -7 34 17 12 -28 25 -4
4 8 -14 -6 -16 -8 -12 24
57 -8 32 21 29 27 25 -19
54 15 -27 -23 3 -83 19 -21
35 -4 24 23 44 26 42 -25
52 13 11 -31 -13 -33 11 7
36 -1 31 2 40 22 32 -24
42 17 6 -37 0 5 33 23
27 28 35 4 34 25 17 -19
39 37 2 -35 13 8 21 19
40 0 31 -10 36 6 30 2
44 44 0 -42 22 -35 -2 -1
48 -2 46 -9 29 12 46 -2
53 40 11 -40 3 -16 -4 3
58 -28 55 -12 30 20 52 -3
50 35 18 -38 3 -4 1 -11
12 -20 -30 15 17 31 -20 -23
-87 -2 2 6 5 -44 -27 -37
8 -4 -25 12 29 19 -28 -3
-86 -2 -1 4 5 -4 -2 -20
00000000: 0505 1828 fefc e400 04df f909 f3fd 1217
00000010: e621 0532 11ec fcf8 f9e6 eb01 e4eb 022a
00000020: e133 042e 0ffa 1108 ede0 f602 dd09 1c3a
00000030: d635 0430 0901 1703 efdd daff d602 123a
00000040: e003 ff21 07f7 1f05 faf0 ddfd f1cf 0226
00000050: 0105 0916 0af6 1e10 ffff e0ff fee7 fe26
00000060: 11f9 2211 0ce4 19fc 0408 f2fa f0f8 f418
00000070: 39f8 2015 1d1b 19ed 360f e5e9 03ad 13eb
00000080: 23fc 1817 2c1a 2ae7 340d 0be1 f3df 0b07
00000090: 24ff 1f02 2816 20e8 2a11 06db 0005 2117
000000a0: 1b1c 2304 2219 11ed 2725 02dd 0d08 1513
000000b0: 2800 1ff6 2406 1e02 2c2c 00d6 16dd feff
000000c0: 30fe 2ef7 1d0c 2efe 3528 0bd8 03f0 fc03
000000d0: 3ae4 37f4 1e14 34fd 3223 12da 03fc 01f5
000000e0: 0cec e20f 111f ece9 a9fe 0206 05d4 e5db
000000f0: 08fc e70c 1d13 e4fd aafe ff04 05fc feec

sequential/conv2d_2/Conv2D/ReadVariableOp i1 [32, 7, 7, 16]
43 -64 1 -67 -79 -82 23 4
5 8 -60 -7 -12 3 -42 23
-2 -67 4 -66 -64 -114 4 -10
44 29 -36 4 -13 7 -53 42
48 -71 6 -32 -125 -84 -8 -14
-9 14 -42 21 0 -3 -47 42
-15 -71 -3 -44 -55 -94 9 2
19 24 -22 15 14 36 -24 33
43 -84 -37 1 -45 -127 -2 -6
42 11 -18 -13 16 40 -24 20
19 -74 -3 -16 -100 -101 15 -25
23 -5 -18 -7 0 20 -20 21
5 -90 7 -57 -89 -121 17 -2
10 -26 -23 22 -56 43 -37 59
-54 -53 21 22 18 16 -5 3
-5 -10 -23 -96 15 -36 -53 -14
-59 -24 30 3 21 11 6 3
17 -9 -1 -97 -30 -28 -41 -16
-15 -6 27 17 18 16 -8 -5
1 -19 -30 -79 32 -33 -44 5
-48 -15 26 12 19 10 -2 4
19 -12 -24 -53 37 -7 -30 13
-42 -30 11 35 38 5 1 -23
-3 12 -15 -46 2 -16 -33 0
-38 -29 1 20 29 -8 16 -16
1 -7 -1 -74 15 -24 -68 -39
-42 -62 34 23 29 -1 -3 -17
13 -12 -20 -82 11 -17 -76 -18
-1 -21 10 12 -56 -4 -30 1
-24 -25 -43 11 -28 -33 -35 -33
-13 7 11 6 -31 18 -19 -16
-40 -37 -30 17 -9 -29 -33 -16
00000000: 2bc0 01bd b1ae 1704 0508 c4f9 f403 d617
00000010: febd 04be c08e 04f6 2c1d dc04 f307 cb2a
00000020: 30b9 06e0 83ac f8f2 f70e d615 00fd d12a
00000030: f1b9 fdd4 c9a2 0902 1318 ea0f 0e24 e821
00000040: 2bac db01 d381 fefa 2a0b eef3 1028 e814
00000050: 13b6 fdf0 9c9b 0fe7 17fb eef9 0014 ec15
00000060: 05a6 07c7 a787 11fe 0ae6 e916 c82b db3b
00000070: cacb 1516 1210 fb03 fbf6 e9a0 0fdc cbf2
00000080: c5e8 1e03 150b 0603 11f7 ff9f e2e4 d7f0
00000090: f1fa 1b11 1210 f8fb 01ed e2b1 20df d405
000000a0: d0f1 1a0c 130a fe04 13f4 e8cb 25f9 e20d
000000b0: d6e2 0b23 2605 01e9 fd0c f1d2 02f0 df00
000000c0: dae3 0114 1df8 10f0 01f9 ffb6 0fe8 bcd9
000000d0: d6c2 2217 1dff fdef 0df4 ecae 0bef b4ee
000000e0: ffeb 0a0c c8fc e201 e8e7 d50b e4df dddf
000000f0: f307 0b06 e112 edf0 d8db e211 f7e3 dff0

sequential/dense/MatMul/ReadVariableOp/transpose i1 [100, 64] scale=0.03612685 zero_point=0
0.18063425 -0.32514164 0.18063425 0.21676108 0.2890148 0.0722537 0.10838054 0.10838054
-0.03612685 -0.32514164 0.0722537 0.0722537 0.25288793 -0.1445074 -0.0722537 0.43352216
0.0722537 -0.03612685 -0.2890148 0.0 0.10838054 -0.32514164 -0.32514164 -0.0722537
-0.0722537 0.18063425 -1.445074 -0.2890148 -0.2890148 0.03612685 0.10838054 -0.03612685
-1.2644397 0.25288793 0.21676108 -0.18063425 -0.10838054 -0.1445074 -0.10838054 -1.0476786
-1.0476786 0.03612685 -0.10838054 -0.6864101 -0.5419027 0.32514164 0.0 -0.43352216
0.2890148 0.0 -0.6141564 -0.10838054 0.10838054 -0.83091754 -0.32514164 0.0
0.1445074 -0.43352216 -0.7947907 0.0 0.0 0.0 -0.3612685 -0.7947907
-1.0838054 0.0722537 -0.18063425 -1.1560591 -0.3612685 0.2890148 0.46964902 -0.39739534
0.18063425 -0.46964902 -0.3612685 0.3612685 -0.75866383 0.2890148 0.10838054 -0.3612685
-0.83091754 -0.03612685 0.1445074 -0.18063425 -0.25288793 0.03612685 -0.3612685 -0.8670443
0.03612685 -0.18063425 0.0 -0.1445074 0.03612685 -0.3612685 0.03612685 0.46964902
0.18063425 -0.03612685 0.0722537 0.722537 -0.32514164 0.32514164 -0.32514164 -0.10838054
-0.18063425 -0.03612685 0.0 0.6502833 -0.0722537 -1.1199323 0.0722537 0.0722537
0.0 -0.5419027 0.03612685 0.6141564 -0.10838054 0.03612685 0.46964902 -0.03612685
-0.25288793 0.18063425 0.03612685 -0.39739534 0.10838054 0.5419027 0.03612685 0.1445074
-0.39739534 0.0 -0.83091754 0.0 -0.6864101 0.03612685 0.0 0.03612685
-0.18063425 -0.46964902 -0.1445074 0.03612685 -0.0722537 0.1445074 -0.1445074 -0.18063425
-0.6141564 0.03612685 0.10838054 -0.2890148 -0.25288793 0.1445074 -0.03612685 -1.1199323
0.03612685 0.03612685 0.0722537 0.1445074 -0.0722537 -0.10838054 0.0 -0.18063425
0.0722537 -0.25288793 0.0 0.18063425 -0.0722537 -0.25288793 0.10838054 0.0
-0.10838054 -0.1445074 0.1445074 0.25288793 -0.18063425 -0.18063425 -0.03612685 0.21676108
0.0 0.03612685 0.03612685 0.0722537 -0.03612685 0.0 0.10838054 -0.0722537
-0.43352216 0.0722537 0.0722537 0.03612685 -0.18063425 -0.18063425 0.0722537 0.03612685
-2.4566257 0.0722537 -0.5780296 -1.9508498 -0.9031712 0.03612685 -1.7702155 0.03612685
-1.2644397 -1.0838054 -1.2283128 0.0722537 -0.46964902 0.1445074 0.0722537 -2.8178942
-1.1199323 0.0722537 0.1445074 -1.5895814 0.0 0.18063425 0.3612685 -4.082334
0.0722537 -0.1445074 0.1445074 0.18063425 0.1445074 -0.50577587 -0.10838054 -1.5173277
0.21676108 -0.1445074 -0.32514164 -0.1445074 0.10838054 0.10838054 -0.32514164 0.25288793
0.18063425 -0.75866383 -0.6864101 -0.3612685 0.2890148 0.10838054 -0.21676108 -0.18063425
-0.0722537 0.10838054 0.1445074 -0.1445074 -0.2890148 0.10838054 0.2890148 -0.0722537
-0.7947907 0.25288793 0.2890148 -0.6141564 -0.3612685 0.0 0.18063425 0.1445074
00000000: 05f7 0506 0802 0303 fff7 0202 07fc fe0c
00000010: 02ff f800 03f7 f7fe fe05 d8f8 f801 03ff
00000020: dd07 06fb fdfc fde3 e301 fded f109 00f4
00000030: 0800 effd 03e9 f700 04f4 ea00 0000 f6ea
00000040: e202 fbe0 f608 0df5 05f3 f60a eb08 03f6
00000050: e9ff 04fb f901 f6e8 01fb 00fc 01f6 010d
00000060: 05ff 0214 f709 f7fd fbff 0012 fee1 0202
00000070: 00f1 0111 fd01 0dff f905 01f5 030f 0104
00000080: f500 e900 ed01 0001 fbf3 fc01 fe04 fcfb
00000090: ef01 03f8 f904 ffe1 0101 0204 fefd 00fb
000000a0: 02f9 0005 fef9 0300 fdfc 0407 fbfb ff06
000000b0: 0001 0102 ff00 03fe f402 0201 fbfb 0201
000000c0: bc02 f0ca e701 cf01 dde2 de02 f304 02b2
000000d0: e102 04d4 0005 0a8f 02fc 0405 04f2 fdd6
000000e0: 06fc f7fc 0303 f707 05eb edf6 0803 fafb
000000f0: fe03 04fc f803 08fe ea07 08ef f600 0504

sequential/dense_1/MatMul/ReadVariableOp/transpose i1 [10, 100] scale=0.007065337 zero_point=0
-0.035326686 -0.2826135 0.07065337 0.14837208 0.09184939 0.014130674 0.0 -0.29674417
-0.31087482 -0.1907641 0.120110735 0.028261349 0.09891472 -0.14130674 0.09184939 -0.042392023
-0.042392023 0.14130674 0.014130674 -0.3462015 0.14130674 -0.042392023 -0.16956809 0.16956809
-0.09184939 0.084784046 -0.035326686 -0.04945736 -0.042392023 0.0 -0.21902545 -0.007065337
0.0 0.15543741 -0.04945736 -0.29674417 -0.29674417 -0.12717608 0.06358804 0.14130674
-0.27554816 -0.19782944 -0.12717608 -0.29674417 -0.19782944 0.0 0.0 0.035326686
-0.2472868 0.021196011 0.007065337 -0.3462015 -0.021196011 0.2472868 0.1907641 0.084784046
0.1342414 0.17663343 0.028261349 -0.113045394 -0.25435215 0.035326686 -0.27554816 0.06358804
-0.028261349 -0.22609079 -0.035326686 0.035326686 -0.09184939 0.38859355 -0.36739755 -0.31794018
0.09184939 -0.3250055 0.2119601 -0.10598005 -0.27554816 -0.09184939 -0.22609079 -0.21902545
-0.035326686 0.014130674 0.48750827 0.19782944 -0.2119601 -0.38859355 0.17663343 -0.5581616
-0.25435215 0.5510963 -0.33207086 -0.37446287 -0.26141748 0.2684828 0.09184939 -0.43098557
-0.33913618 0.09184939 -0.3815282 -0.14837208 0.1342414 -0.007065337 -0.20489478 0.8972978
-0.27554816 0.021196011 -0.035326686 0.09891472 -0.22609079 0.14130674 -0.21902545 0.07065337
0.07065337 0.12717608 -0.21902545 -0.18369877 -0.09184939 0.2684828 0.021196011 0.10598005
-0.17663343 0.14837208 0.10598005 -0.31794018 -0.23315613 -0.19782944 0.19782944 0.06358804
-0.056522697 0.16956809 0.120110735 0.0 -0.084784046 -0.16956809 -0.035326686 -0.3038095
0.042392023 -0.2472868 -0.31087482 -0.3038095 -0.22609079 0.042392023 -0.16956809 0.12717608
0.1342414 -0.04945736 -0.042392023 -0.035326686 0.1342414 -0.1907641 -0.028261349 0.17663343
-0.014130674 0.077718705 -0.2684828 -0.16250275 -0.18369877 -0.113045394 -0.021196011 -0.26141748
-0.17663343 -0.23315613 -0.06358804 -0.39565888 -0.028261349 -0.33913618 0.0 0.042392023
-0.2826135 -0.2826135 0.07065337 -0.1342414 -0.21902545 -0.16250275 -0.2684828 0.084784046
0.120110735 -0.077718705 0.17663343 -0.07065337 -0.14130674 -0.31087482 0.26141748 0.084784046
0.120110735 -0.18369877 -0.09891472 0.2119601 -0.021196011 0.035326686 -0.27554816 -0.10598005
0.014130674 -0.120110735 -0.1907641 0.33207086 -0.35326687 -0.18369877 0.16250275 -0.21902545
-0.21902545 -0.056522697 -0.29674417 0.24022147 -0.2119601 -0.014130674 -0.084784046 -0.077718705
0.2896788 0.0 -0.20489478 0.07065337 -0.1342414 -0.18369877 -0.22609079 -0.40978956
-0.06358804 -0.07065337 0.021196011 -0.2472868 0.09184939 0.007065337 0.113045394 -0.15543741
-0.16956809 -0.22609079 -0.1342414 -0.10598005 0.17663343 -0.29674417 0.09891472 -0.007065337
-0.021196011 -0.3250055 0.18369877 -0.021196011 0.056522697 -0.2472868 -0.16250275 -0.09184939
0.14130674 -0.17663343 -0.16250275 0.09891472 0.14130674 0.014130674 -0.021196011 -0.12717608
-0.20489478 -0.17663343 -0.028261349 0.17663343 -0.014130674 -0.20489478 -0.04945736 -0.113045394
00000000: fbd8 0a15 0d02 00d6 d4e5 1104 0eec 0dfa
00000010: fa14 02cf 14fa e818 f30c fbf9 fa00 e1ff
00000020: 0016 f9d6 d6ee 0914 d9e4 eed6 e400 0005
00000030: dd03 01cf fd23 1b0c 1319 04f0 dc05 d909
00000040: fce0 fb05 f337 ccd3 0dd2 1ef1 d9f3 e0e1
00000050: fb02 451c e2c9 19b1 dc4e d1cb db26 0dc3
00000060: d00d caeb 13ff e37f d903 fb0e e014 e10a
00000070: 0a12 e1e6 f326 030f e715 0fd3 dfe4 1c09
00000080: f818 1100 f4e8 fbd5 06dd d4d5 e006 e812
00000090: 13f9 fafb 13e5 fc19 fe0b dae9 e6f0 fddb
000000a0: e7df f7c8 fcd0 0006 d8d8 0aed e1e9 da0c
000000b0: 11f5 19f6 ecd4 250c 11e6 f21e fd05 d9f1
000000c0: 02ef e52f cee6 17e1 e1f8 d622 e2fe f4f5
000000d0: 2900 e30a ede6 e0c6 f7f6 03dd 0d01 10ea
000000e0: e8e0 edf1 19d6 0eff fdd2 1afd 08dd e9f3
000000f0: 14e7 e90e 1402 fdee e3e7 fc19 fee3 f9f0
